output/forecast.onnx (onnx, 61451 bytes, 10 tensors)

fc.bias f4 [4]
00000000: c6c2 773e ae05 773e 35d3 743e 3ee7 723e
0.24195394 0.2412326 0.23908694 0.23721024

fc.weight f4 [4, 32]
00000000: 2b2c 603e 02f6 73be 5ada 49be 0509 3f3e
00000010: ffb6 ac3e 1858 553e 651b 9a3d 61d7 11be
00000020: 8cf0 81be f708 653e 26fc 93be f0e6 4ebe
00000030: 7e37 a23e af52 6bbe 05a0 4b3e b69a 8cbe
00000040: 2d0f 80be 8a74 77be 1de6 63be e7a3 5abe
00000050: 6a68 81be 131d 6ebe a6f8 843e 9057 76be
00000060: fd5f 64be bb42 90be 7af8 50be 60e3 80be
00000070: df78 e43d 7a80 76be 7c35 a13e 4a64 cdbe
00000080: 5f70 503e b35d 1fbe 24c7 32be a719 503e
00000090: b22b 783e a896 0c3e c306 9dbd 7ac5 7abe
000000a0: e662 5cbe c1b1 403e 293f 88be 517c 43be
000000b0: 14e0 8d3e 56cf 82be b3e3 393e 9e56 78be
000000c0: 129c 5cbe 7ce5 41be 9e12 3fbe 15a9 6ebe
000000d0: 40ec 67be eafb 54be 5d49 753e 4f90 d3be
000000e0: b336 57be 6ec8 6ebe b48e 5ebe 6df3 67be
000000f0: bfe1 603e 3b35 6cbe 9f38 9c3e 25da abbe
00000100: c421 423e 1109 e9bd 49ad 23be b56f 5e3e
00000110: 56cf 2b3e 0487 8e3d 2276 4cbe 723f 9ebe
00000120: 1beb 2bbe 98db 273e 5c0c 51be fb23 42be
00000130: 313f 763e 22f5 84be 5c7d 3f3e 1221 4abe
00000140: 3e33 5abe bf59 2dbe 953f 24be 8103 80be
00000150: aa2c 53be 85c2 3bbe 8dba 5a3e e609 cdbe
00000160: 767d 06be d166 36be b362 5fbe 7481 63be
00000170: 99be ad3e 74f1 71be af14 553e b774 6ebe
00000180: 8056 383e d2ea f0bd 27e3 0cbe bd53 603e
00000190: 8ab0 ef3d d2e1 4c3c e55d 99be 0768 a3be
000001a0: b32b 10be b924 263e 1505 18be a5ea 4ebe
000001b0: 8f5a 7d3e ac4a 9abe 1ec9 3e3e a222 1bbe
000001c0: eafb 5fbe 5450 20be 17a6 f8bd ffc6 67be
000001d0: 3576 3dbe 1cf8 15be c5ac 373e 9b48 d7be
000001e0: 3e74 6abd 1252 fabd 95e6 68be fd95 4abe
000001f0: 0f10 db3e 2edc 60be d224 263e d7d4 76bd
0.21891849 -0.23824313 -0.19712201 0.18655784 0.33733365 0.20834386 0.07524756 -0.14242317
-0.25378835 0.22366701 -0.28903311 -0.20205283 0.31682962 -0.2298076 0.19885261 -0.27461785
-0.25011578 -0.2416555 -0.2225575 -0.21351586 -0.25274974 -0.23253278 0.25970954 -0.2405684
-0.22302242 -0.2817591 -0.20407286 -0.25173473 0.11155867 -0.24072447 0.31486118 -0.40115577
0.20355366 -0.15563087 -0.17458779 0.20322286 0.24235418 0.13729346 -0.07667305 -0.24489394
-0.21522102 0.18817808 -0.26610687 -0.19090392 0.2771002 -0.2554881 0.18153267 -0.24251792
-0.21543911 -0.18935198 -0.18659446 -0.23306687 -0.22648716 -0.20799223 0.23953767 -0.41321036
-0.2101696 -0.23318645 -0.21734124 -0.22651453 0.21961115 -0.23067181 0.30511948 -0.3356487
0.18958193 -0.113786824 -0.15984072 0.217223 0.16778311 0.06959346 -0.19966939 -0.3090778
-0.16788904 0.16392362 -0.20414871 -0.18959038 0.24047543 -0.25968271 0.18700165 -0.19739178
-0.2130861 -0.16928767 -0.1603988 -0.25002673 -0.20622507 -0.18335922 0.21360226 -0.40046614
-0.13133797 -0.17812659 -0.21814995 -0.22217351 0.33934477 -0.23627263 0.20808671 -0.2328671
0.18001747 -0.117635384 -0.13758527 0.21906944 0.11703594 0.012505012 -0.29954448 -0.31915304
-0.1407917 0.16224946 -0.14845689 -0.20206697 0.24741577 -0.30135095 0.18631408 -0.1514993
-0.21873441 -0.15655643 -0.12141054 -0.22634505 -0.18502124 -0.14645427 0.17937 -0.4204758
-0.057239763 -0.12222685 -0.2274421 -0.19783778 0.4278569 -0.21958992 0.16224983 -0.060261574

network.bias_hh_l0 f4 [128]
00000000: 33f3 633e 1008 3abe 8d93 843d 753a fdbc
00000010: 026c f1be d7e0 ddbe a445 3fbe dcbf 363d
00000020: fbf3 11bf 337e d0bb 588e 223e a9f4 59bf
00000030: 397f 00bf 7303 cf3d 6781 dcbe 7835 bf3e
00000040: d896 15bf 3379 ccbe b7f8 933e a1f1 abbe
00000050: 2e8f ee3d 7ba7 183f 8ae7 9cbe 6a97 d53d
00000060: 65fa 0dbf 2797 aabe e7bb 093e c0c8 fabd
00000070: 941b d8be 85d2 8c3e d6a9 f1be 8557 033e
00000080: a6fc 10bf 14c4 e6be 6cf5 e9be 304d 11be
00000090: b2b0 fb3d 4475 8dbe 2935 ba3a 601a 0abf
000000a0: 09d7 02bf ef20 ea3d 27fd 03bf 4dbe 43bf
000000b0: 60e2 0c3e 170a 4bbf a5a1 f8be c750 13bf
000000c0: e941 b0be fba3 28be a420 2ebf 6514 e6be
000000d0: 4e73 0cbf a84e 36bf 4c31 39bd 17b4 61bf
000000e0: 370e febe 0b33 d5be 97ae 0fbf 4fec d6be
000000f0: 30c8 52bf 2d1c 22bf d2e8 89bf 385a e5be
00000100: 6611 52be e570 9f3d 4d78 a2be dfc8 acbe
00000110: a2e8 afbe 82a6 e7be 1553 f5be 2137 653e
00000120: 2e80 c23d bd8f aa3c a0ae a2be ed1b 163d
00000130: 3e82 b13d a8ca 4ebe 8e28 853e 8582 d0be
00000140: 4ba1 48be 8716 bb3e c1ed cf3e bea7 8d3b
00000150: 0c76 51be 55a9 9abd 41e6 ba3e 0409 aa3e
00000160: b2a1 003e f37a 043e 1cd3 fd3e 70c3 323e
00000170: cf6a 08be 3db3 9dbe 0031 973e 1668 ba3d
00000180: 6150 30be d0ca bfbe 865f 7b3c c980 3a3d
00000190: b7f2 8f3b 4a98 a9be 8ffa 15be 18c3 f23d
000001a0: 34ac 6cbe d482 68bf e210 0cbe 70e1 02bf
000001b0: 961f 46be 4e8f 35be 903c babe eff6 6c3e
000001c0: c903 27bf 17b4 e2be 4068 4f3e 270d 29be
000001d0: 724e 64be 579e 383e 74a1 b43d b44d 233d
000001e0: 7916 e2be 9dcc dbbe bb18 a63e 84f3 d83d
000001f0: ff6a 0ebf e8d0 85b9 2b2b 00bf b6f0 3cbd
0.22260742 -0.18167138 0.064734556 -0.030911664 -0.47152716 -0.43335602 -0.1867891 0.044616565
-0.5701291 -0.0063627004 0.15874612 -0.85138947 -0.50194126 0.1010808 -0.43067476 0.3734548
-0.58433294 -0.39936218 0.28900692 -0.33582786 0.11648403 0.59630555 -0.306454 0.104292706
-0.55460197 -0.33318445 0.13450585 -0.12245321 -0.4220854 0.27504364 -0.47199887 0.12826355
-0.5663551 -0.4507147 -0.45695055 -0.14189601 0.12289561 -0.2762853 0.0014206517 -0.53946495
-0.5110937 0.11432063 -0.51558155 -0.7646225 0.1375823 -0.7931227 -0.48560825 -0.5754513
-0.34425285 -0.16468804 -0.68018556 -0.44937435 -0.5486344 -0.7121377 -0.04521303 -0.8816542
-0.4962022 -0.41640505 -0.5612578 -0.41977164 -0.8233671 -0.6332424 -1.0774176 -0.44795394
-0.2051445 0.07785205 -0.31732407 -0.33747002 -0.34357172 -0.45244223 -0.4791495 0.22384311
0.094971046 0.020820493 -0.31773853 0.036647726 0.0866742 -0.20194495 0.26007503 -0.40724578
-0.19592778 0.36540624 0.4061108 0.004322975 -0.20455188 -0.07551829 0.36503795 0.33210003
0.12561682 0.12937526 0.49575126 0.17457366 -0.13321994 -0.3080081 0.29529572 0.09101884
-0.17218162 -0.3745942 0.015342599 0.045532975 0.0043929475 -0.33124 -0.14646362 0.118536174
-0.23112565 -0.9082463 -0.13678315 -0.5112524 -0.19347987 -0.17730448 -0.3637433 0.23141073
-0.6524015 -0.44278023 0.20254612 -0.16508923 -0.2229555 0.18029152 0.08819857 0.039869025
-0.4415777 -0.42929545 0.32440743 0.10593322 -0.55632013 -0.00025523384 -0.5006587 -0.046127997

network.bias_hh_l1 f4 [128]
00000000: 99f0 eebe eb4e 41bf daa4 63bf ad80 7bbc
00000010: 5b67 29bf 0940 28bf 8514 00bf fd83 dcbe
00000020: 97c5 f3be 8535 09bf 3454 1abf a487 8cbe
00000030: f9f0 f5be eb1e c2be c584 07bf e3ce 94be
00000040: 8ca1 17bf f5c1 bbbe 9c03 01bf af2e fbbe
00000050: 65ff 0fbf 5089 b6be 73c7 13bf c0c9 d3be
00000060: e308 03bf 8009 07bf 6c97 a2be a588 d6be
00000070: ecc5 0abf 3f3e a1be cbd8 66bf 0ad5 80bf
00000080: 7380 acbd 45a8 4f3e 1b54 74be fba5 56bc
00000090: a535 773e 7781 983e f2a8 ccbc c480 21bd
000000a0: 689c a13d b89b 91be dd9a 37be e0ae d739
000000b0: 1995 08be 2f96 6abe c5cd 0ebe d0d2 1b3e
000000c0: 366e 18be 330a 78bc e2fb 403d aa2a 25bd
000000d0: 0e97 0d3e 1e23 783d 4b23 ce3c c13c 973e
000000e0: a93c 75bc b63d 123e 6485 24be 1a11 aebb
000000f0: 3e6a a0be e4a6 4f3d 9b4f a23c d299 24be
00000100: 3da6 cbbb ea55 f53b 56b5 b6bd 2403 b23d
00000110: 2f08 053e d069 8bbd 0368 973d 83c4 36be
00000120: 8400 e0ba 95ea 7c3d f983 01bc f2cb 07be
00000130: 4091 133d 9523 06be 213b 643c bd6c 18be
00000140: 089f e6bb 9adf 1bbd 78f1 f7bc 882c 16be
00000150: f39d ffbd 432e 22be 8522 383d 4c0f aebe
00000160: 274b 2d3e 375a 8fbc 961d 0bbc c344 323d
00000170: 5d53 bf3c 6f66 06be 6986 edbd 54bf e63d
00000180: fc8d fbbe 4ade b1bf c0cf 25bf 5495 e7be
00000190: 758c 39bf 7fff 5bbf 2616 5fbf 493b 0dbf
000001a0: 418b 7dbf e433 0dbf 9d0b 64bf fba8 90be
000001b0: 70a4 6ebf 357c 21bf 88d1 50bf 9e0b 16bf
000001c0: 01d0 e1be 1af2 2fbf a5a6 10bf 7b2e 2ebf
000001d0: f7ba f4be 256c f9be 5942 0fbf 6c7d b3bf
000001e0: 3010 24bf be40 0bbf 1b49 edbe 289f 06bf
000001f0: d646 4cbf 9e70 2bbf e3ec 7dbf d441 57bf
-0.46667936 -0.75511044 -0.8892342 -0.015350503 -0.6617333 -0.6572271 -0.5003131 -0.4306945
-0.47611687 -0.5359729 -0.60284734 -0.27447236 -0.4803541 -0.37914214 -0.52936965 -0.29064092
-0.59230876 -0.36671415 -0.5039613 -0.49059054 -0.56249076 -0.35651636 -0.5772621 -0.4136486
-0.51185435 -0.5274887 -0.3175615 -0.41901127 -0.54208255 -0.31492803 -0.9017455 -1.0065014
-0.08422937 0.20279033 -0.23860209 -0.013101096 0.24141558 0.29786274 -0.024982903 -0.03942944
0.0789116 -0.28439116 -0.1793017 0.00041138288 -0.13338126 -0.22908853 -0.13945682 0.15217137
-0.14885792 -0.01513915 0.047115214 -0.04032389 0.13827154 0.060580365 0.025163313 0.2953854
-0.014968076 0.14281353 -0.1606651 -0.0053120973 -0.31331056 0.05069627 0.01981335 -0.16074303
-0.0062148855 0.0074870484 -0.08921306 0.08692005 0.12991403 -0.068072915 0.073928855 -0.17848401
-0.0017089997 0.061747152 -0.007905 -0.13261393 0.036027193 -0.13099511 0.013930113 -0.1488523
-0.007038001 -0.03805504 -0.030266508 -0.14665425 -0.12481298 -0.1583796 0.044954795 -0.33996046
0.169232 -0.017499072 -0.008490941 0.043522608 0.02335518 -0.13125013 -0.11597902 0.11266962
-0.49131763 -1.3895962 -0.64770126 -0.45231116 -0.72479945 -0.8593673 -0.8714317 -0.55168587
-0.9904061 -0.55157304 -0.8908022 -0.28253922 -0.9321966 -0.6308015 -0.8156972 -0.58611476
-0.44104007 -0.6872879 -0.5650428 -0.68039674 -0.47798893 -0.4871532 -0.55960613 -1.4022651
-0.640872 -0.54395664 -0.46344838 -0.52586603 -0.7979559 -0.66968715 -0.99189585 -0.8408482

network.bias_ih_l0 f4 [128]
00000000: ba46 eb3d 424b 81be 9626 3a3e 2737 bbbd
00000010: 8620 f4be 4c3a 70be 91aa 59bd b75d 70ba
00000020: b15c 04bf e2ab 99be a486 d83d 015c 5ebf
00000030: d06a 63be ff63 80bd 168e c9be 05a2 da3e
00000040: 4130 e5be 33eb d9be 0714 6d3e ac1e d2be
00000050: 6cc4 2ebd 67ff 203f 4e7a abbe cf03 833e
00000060: 22e4 d5be 2c46 b9be 2e1e 453e fc99 1abe
00000070: e302 9abe f2c5 763e 34af 6bbe 89ca 8dbc
00000080: 78c8 23bf 5407 b7be 5130 e3be ff5b 82be
00000090: 2917 403e ae00 d9be 1fb3 193d 26e1 b6be
000000a0: 27c9 c4be e319 873e 931a 44bf d536 7bbf
000000b0: 9b48 e63e a1a6 84bf 3fe4 34be 0dd7 3abf
000000c0: 83d6 abbe 0523 8ebe fcbe 4abf b04c f3be
000000d0: 024c 09bf c5bf 37bf a4b7 ba3d ffe4 60bf
000000e0: 38c9 1dbf c61a 86be 5f14 20bf 4071 09bf
000000f0: 82d5 1ebf 3294 37bf 73ed 69bf 6fc7 f3be
00000100: d17a 21be e8f9 653d e6f6 a8be c691 c8be
00000110: 6261 d0be 2956 52be 17eb 01bf b823 153e
00000120: 689f a93c de95 3339 9dd8 4abe d68a 8a3d
00000130: ebfb ca3d 50e2 33be 8fcb ad3e 6e40 debe
00000140: 7c0a c9bd 12df 4f3e 5cf0 f83e c5f0 cfbc
00000150: 3377 bdbe 499e 8dbe c3fa cb3e 6e3b 3f3e
00000160: ea49 133b 7047 9ebd ee09 a63e a0b4 5f3e
00000170: 54b5 33be 2bd1 08be 8765 503e dfa4 03be
00000180: e0bb 6bbb d005 c5be 7c07 023e d0d7 24be
00000190: 2091 3cbe 5475 3bbe 82fc 29be 8ad5 483e
000001a0: 9141 9fbe 3709 53bf e4fa 6b3d c775 08bf
000001b0: e63f 87bc d73e 033d aaad 4abe ce55 ed3c
000001c0: cc2e 0dbf 443f cebe 2813 1f3e 223f 82be
000001d0: 58e4 73be 374a 343e 0559 2b3d bac1 733e
000001e0: ea53 10bf 0547 8ebe e20a b33d a4db 4ebd
000001f0: 8dcc 16bf c86a 5f3e 5f6e 8fbe 9734 72be
0.114880994 -0.2525273 0.18178782 -0.09141379 -0.47681063 -0.23459738 -0.05314118 -0.0009169238
-0.51703936 -0.3001395 0.10572556 -0.86859137 -0.22208714 -0.06269073 -0.39366215 0.42701736
-0.44763377 -0.42562255 0.23152171 -0.41039026 -0.04266779 0.62889713 -0.3349175 0.25588843
-0.41775614 -0.3618635 0.19249794 -0.15097803 -0.30080327 0.24098948 -0.23016053 -0.01730849
-0.63977766 -0.35747778 -0.443728 -0.25460812 0.18758835 -0.4238333 0.03752434 -0.3571865
-0.38434717 0.26386937 -0.7660305 -0.9813054 0.4497727 -1.0363351 -0.17665194 -0.7298439
-0.33562097 -0.27761093 -0.7919767 -0.47519445 -0.53631604 -0.7177699 0.09117058 -0.8784942
-0.6163516 -0.26192302 -0.62531084 -0.5368843 -0.6204454 -0.71710503 -0.91377944 -0.47613093
-0.15769507 0.056146532 -0.3300087 -0.39173716 -0.40699297 -0.2054068 -0.50749344 0.14564407
0.020705894 0.000171266 -0.19809194 0.06764762 0.09911331 -0.175668 0.33944365 -0.4340853
-0.09816453 0.20299938 0.4862088 -0.025383363 -0.37005004 -0.27659824 0.39839754 0.18675014
0.0022474476 -0.07728469 0.3242945 0.21846247 -0.1754964 -0.13361041 0.2035123 -0.12855862
-0.0035970137 -0.38480997 0.12698168 -0.16097951 -0.18414736 -0.18306476 -0.1660023 0.19612709
-0.3110471 -0.82435936 0.057612315 -0.53304714 -0.016509961 0.03204235 -0.1979281 0.028971579
-0.5514953 -0.40282643 0.15534651 -0.25438792 -0.23817575 0.17606436 0.041832943 0.2380437
-0.5637804 -0.2778856 0.0874231 -0.050502434 -0.5890587 0.21818078 -0.28013894 -0.23652874

network.bias_ih_l1 f4 [128]
00000000: 45f6 ddbe 77e0 3bbf 2de6 20bf d048 80be
00000010: 7917 0cbf 9284 febe e8d3 dabe bc18 b5be
00000020: 4f04 18bf 7b3e 29bf f7a3 01bf 4f67 8bbe
00000030: 3dc1 1fbf ce8d 1ebf eaba 09bf 2db9 aabe
00000040: 1e63 01bf 6604 08bf e7e6 05bf 936c e8be
00000050: 1fec b5be b4ae f8be cb6f b3be 00e0 1dbf
00000060: 3dda 40bf d3c5 dcbe 8e5a 3abd 0a20 24bf
00000070: 5e16 07bf 87ca 90be 81cf 42bf ab62 8abf
00000080: 2f48 46be b7d2 123e 87f1 50be 0958 e73d
00000090: baf0 4a3e f787 cc3e 98ce 4bbd 86cc 54be
000000a0: e5d6 5abe 08ca 8abe 3154 8ebe 8896 18be
000000b0: 3ed2 07bd fb49 19be b087 2b3d 1d9e b13d
000000c0: 61e4 0bbd 5ae6 953d f275 7c3d 7ab8 4a3e
000000d0: 878e b0bd 1b04 3f3e 95db 4abd 7664 b83d
000000e0: f1f1 533c 6d21 a23e 23f8 863d 02e8 1a3e
000000f0: 906a c9bd 05fa 3d3d a420 afbd 26d3 2cbe
00000100: 0acc a13d 5fe9 43be 78b1 c5bd 52c6 9d3d
00000110: 83f8 7c3a f840 01be cca3 19bd fc86 273d
00000120: 8671 e0bc 6fcc 1c3d 048b 573c 8330 e2bb
00000130: 95ed d0bc 18c7 9a3b ffd2 bcbc 8b54 083d
00000140: e0c8 0ebe 5dd3 e2bd a114 c7bc 2184 853d
00000150: 0580 25bc e23a 543d c479 d63d af58 35be
00000160: 995e 533d af92 54bd f784 0dbe bf37 e2bd
00000170: 3623 6b3d 6840 a2bc 4e49 a43c 387f 07be
00000180: 99c6 03bf 4eec 99bf ee47 20bf ea9f 0cbf
00000190: b66e 0dbf dd63 60bf 3b11 53bf 9a47 14bf
000001a0: 1809 36bf 6cdc f0be 2b9c 69bf d20e c5be
000001b0: f2c2 73bf a9d5 13bf f560 45bf 8439 15bf
000001c0: b9a0 08bf 904e 32bf 51c2 22bf c348 ecbe
000001d0: 8db6 1dbf 7dde 17bf c37a c8be e67d bbbf
000001e0: 6880 14bf 76c9 2dbf e65b d6be b740 3cbf
000001f0: 6340 4ebf 8d4b edbe ea5a 99bf 1b17 59bf
-0.4335195 -0.7338938 -0.6285122 -0.25055552 -0.54723316 -0.49710518 -0.42739797 -0.35370433
-0.59381574 -0.6611096 -0.50640815 -0.27227256 -0.62404233 -0.61935127 -0.53800833 -0.33344403
-0.50541866 -0.5313171 -0.52305454 -0.45395336 -0.3553171 -0.48570788 -0.3504623 -0.6166992
-0.75333005 -0.43119678 -0.045496516 -0.6411139 -0.52768505 -0.28279516 -0.76097876 -1.0811361
-0.19363473 0.14338194 -0.20404635 0.11296088 0.19818392 0.39947483 -0.04975757 -0.20781144
-0.21371038 -0.27107263 -0.27798608 -0.14901173 -0.033159487 -0.14969628 0.04187745 0.08672736
-0.034153346 0.07319327 0.06163592 0.19796935 -0.08620935 0.1865391 -0.049525816 0.090035364
0.012936101 0.31666127 0.06590297 0.15127566 -0.09834778 0.046381015 -0.085511476 -0.16877422
0.079002455 -0.19131993 -0.0965299 0.07703842 0.0009650068 -0.1262244 -0.037509724 0.040900216
-0.027397882 0.0382809 0.0131557025 -0.0069027557 -0.025503913 0.004723441 -0.02304983 0.03328375
-0.13943815 -0.110754706 -0.024301829 0.06519342 -0.010101323 0.051813968 0.10472444 -0.17709611
0.051603887 -0.0518977 -0.13820253 -0.11045789 0.057406627 -0.019806102 0.020054486 -0.13232124
-0.5147491 -1.202524 -0.62609756 -0.5493151 -0.55247056 -0.8765238 -0.82448167 -0.57921755
-0.71107626 -0.4704317 -0.9125392 -0.3848787 -0.9521934 -0.57747895 -0.7710107 -0.58290887
-0.53370243 -0.69651127 -0.63577753 -0.46149263 -0.61606675 -0.59323865 -0.3915616 -1.4647796
-0.5800843 -0.6788553 -0.41866988 -0.73536247 -0.80566996 -0.46346703 -1.198087 -0.8480088

network.weight_hh_l0 f4 [128, 32]
00000000: 9c8d 59be 257f 983e 2d67 db3e d560 78bc
00000010: 0f12 253f 4af0 ac3e b2b6 cfbe 57b8 0d3e
00000020: 1d33 a8be ca0a d93e 8853 97be befb 74bd
00000030: e3dd 303f 9005 a53d 59de f3bc ff47 debe
00000040: 5022 24bf ae8f 98be 83ae 9ebf ff2d 82be
00000050: 783c c63e f5b1 b93e 90c9 663e af09 833e
00000060: 769b 9fbe d2c1 21be 72f2 0f3d d08f 913f
00000070: ee6e 003f f877 55be e7b8 28bf d4e5 333f
00000080: 18e1 51bd 6eb0 843e fbe0 843e 779a 2a3d
00000090: f4a4 713f f651 ffbe 68b7 bbbe 585b 8b3d
000000a0: fcc5 b3be b4b2 4f3e c250 c4be 2603 60bd
000000b0: ea62 683e 4664 a9be 98da 9ebe 0644 9fbe
000000c0: b5ac a3be 9189 25bf 717c 26bf 1b07 b4bc
000000d0: b5e9 e63e 6857 9ebd ff8c 77be 8c41 963e
000000e0: 1828 4a3e c74f dfbe 2308 2abe 5d70 1f3f
000000f0: 893b 203f 683a 53bd aad6 c9be 4fe9 b6be
00000100: 08c4 f6bc a027 be3d 8c3c 8e3d e1c8 90be
00000110: 570d fd3f 1c8f 783e adef d93e 4db4 c03a
00000120: 7e85 df3d cf49 19bd 58fc 653e 0193 3b3f
00000130: 78dd bdbf 5fcd 283f 7240 2dbe 088b 703d
00000140: 88bf 0ebf 851e 35bf d3b4 ecbe 930c 26be
00000150: 128a a63e 9f9b e03d a959 40be 062b 4d3d
00000160: 8cc1 17be 9c27 703e 550e 7dbe 3dae c1be
00000170: e4a6 64be 26b8 82bd 6fda af3e 8d78 bf3d
00000180: 0dd4 953d d891 523e 80d9 013e 73f7 a43e
00000190: 5d42 d73f 42c6 253f b325 6d3f 6f80 54bd
000001a0: bff2 163c a4c9 9f3e bf51 b3be 13ae 91bd
000001b0: 0ce1 0dbf 7623 d13c 171d 42bf feb7 2fbf
000001c0: 1e98 a3be f935 d8bc b7ae 03be 93ed 433e
000001d0: 1c77 5cbe c58c 87be 7876 c3bf 6d88 fa3e
000001e0: 5414 b03e 7731 a9be 2003 53be 2e18 bc3d
000001f0: ad07 f93e 9ae1 adbe 7463 0abf 70c2 b43d
00000200: 5fbf 413e 593c debc 887f 873f e774 2a3f
00000210: c3c5 b2bf 769f 4d3c 2caa 493f ccb8 6cbe
00000220: a626 19bf 9e5c 75be 0291 a43e 103d 843d
00000230: b109 ed3f 4dc5 b1be 99c7 2e3d cac1 673f
00000240: 16ec dfbe a13c 97bf 1935 9dbf d7b0 5abe
00000250: 52c5 9bbe 9aaa 253f b091 073d 0f1a 6bbe
00000260: 9108 ebbe a5e2 903e 1975 c6bf 135e 413f
00000270: 5eb7 123f 9fa7 123e e9f0 bcbe b8b2 583f
00000280: 6591 4a3f 89c5 92be c25b 3c3f a6d8 68bd
00000290: 87eb bfbf 151d fb3e ece2 0e3e c2d4 76bf
000002a0: a696 45be c055 f33e 6d32 823f e120 00bf
000002b0: 761f 1c3f 63cd 5e3f 52cb 983e 5767 bc3f
000002c0: 1d40 51be dc17 bd3e 515e 60bf 7336 063e
000002d0: 21c6 d5bd 40af a13f 1819 c13e b78d 9ebf
000002e0: 63f0 5f3e 6688 bebe d22c 8abf 8c85 44bf
000002f0: 8936 443f 2a3c 5c3f 994f bfbe 7fcd 5cbf
00000300: 69ef 6d3f 7a29 d6be b044 de3e bc29 d5be
00000310: 72c9 71bf a24b 263f c8ef 903e 6206 6bbf
00000320: f056 8b3c 439f af3e c8f1 653f f9f0 1ebf
00000330: f012 a83e d981 3f3f b2dc 7abe a5e7 dc3f
00000340: 6af1 cbbe 609d 803e 86ad 5dbf 0563 3d3f
00000350: bf22 733e 19d6 923f 7e2c 78be 2420 bfbf
00000360: 302d d93e 6b6f 0ebf 719d 5cbf a6ac 47bf
00000370: 7c80 fe3e 87b3 8d3f ca00 c6be c50c 37bf
00000380: 9bd1 6a3d cc8b 13be 6e46 4a3d 8419 6cbe
00000390: 66d7 2cbd 521f ebbd 2b4a 44bf 167b 7b3e
000003a0: a4b3 e9be 813d 973e 04c1 d9bc 954d df3d
000003b0: fe31 3a3c c28c c6be f4f8 09be 046c 28be
000003c0: 4435 14bf f82f 81be 99dd e8be 267b 65be
000003d0: 6be7 d33d 83c4 f83c 456c 493e 19e7 de3c
000003e0: 5f6c 9abd fb96 12be d8d2 ffbd 8fec a93e
000003f0: 737b 5f3e 47a0 6ebe 8111 c8bd 1f66 e0be
-0.21245426 0.29784504 0.42852154 -0.015159805 0.6448068 0.33777076 -0.40569073 0.13839851
-0.32851496 0.42391044 -0.29555917 -0.059810393 0.6908857 0.080577016 -0.02976911 -0.43414304
-0.64114857 -0.2979712 -1.2397007 -0.25425717 0.3871801 0.36268583 0.22537827 0.25593325
-0.31173295 -0.15796593 0.035143323 1.1372013 0.50169265 -0.20846546 -0.6590714 0.70272565
-0.051240057 0.25915855 0.25952896 0.041651215 0.94392323 -0.4986722 -0.36663365 0.06804532
-0.35111988 0.20283014 -0.38342863 -0.054690503 0.22693983 -0.33084315 -0.3102615 -0.31106585
-0.31967703 -0.64663035 -0.6503363 -0.021976044 0.4510018 -0.07731515 -0.2417488 0.29346883
0.19741857 -0.43615553 -0.16604666 0.6228083 0.62590843 -0.051569372 -0.39421588 -0.35724875
-0.030122772 0.092849016 0.06945142 -0.28278258 1.9769696 0.24273342 0.4256567 0.0014702171
0.109141335 -0.037423905 0.22459543 0.73271185 -1.4833212 0.6593837 -0.16919115 0.05872634
-0.55761003 -0.70749694 -0.46231708 -0.16215734 0.32527214 0.10967182 -0.18784203 0.05008986
-0.14819926 0.2345261 -0.24712498 -0.37828246 -0.22329289 -0.0638278 0.3434634 0.09349165
0.07315836 0.20563447 0.12680626 0.3222004 1.6817127 0.6475564 0.9263565 -0.051880296
0.009213149 0.31208527 -0.35023305 -0.0711328 -0.5542152 0.025529604 -0.7582564 -0.68640125
-0.31951994 -0.026392924 -0.12859617 0.19133596 -0.21529812 -0.26474586 -1.5270529 0.4893221
0.3439051 -0.3304555 -0.20606661 0.091842994 0.4863867 -0.33961183 -0.54058003 0.088261485
0.18920659 -0.027128385 1.0585794 0.6658463 -1.3966602 0.0125502255 0.78775287 -0.2311737
-0.598246 -0.23961112 0.32141882 0.06456959 1.8518583 -0.3472084 0.04267082 0.90530074
-0.43734807 -1.1815377 -1.2281829 -0.21356522 -0.3042398 0.6471344 0.033097923 -0.2295916
-0.45904973 0.28297916 -1.5504485 0.7553417 0.57311046 0.14321755 -0.3690255 0.84647703
0.79128104 -0.28666332 0.7357751 -0.056847237 -1.4993752 0.49045625 0.13953751 -0.9641839
-0.19295749 0.4752636 1.0171639 -0.5005017 0.60985506 0.87032145 0.2984262 1.4719037
-0.20434614 0.36932266 -0.87643915 0.13106708 -0.10438181 1.2631607 0.37714458 -1.2386998
0.21869044 -0.3721344 -1.0794928 -0.76766276 0.76645714 0.86029303 -0.37365416 -0.8625106
0.92943436 -0.4182852 0.4341178 -0.41633403 -0.94448006 0.64959157 0.2830794 -0.91806614
0.017009228 0.34301195 0.89822054 -0.62086445 0.32826948 0.74807507 -0.24498251 1.7258192
-0.39832622 0.25120068 -0.865929 0.73979217 0.23743723 1.1471587 -0.24235722 -1.4931684
0.42417288 -0.5563876 -0.86177737 -0.77997816 0.497074 1.1070412 -0.38672477 -0.7150386
0.0573288 -0.14408797 0.049383573 -0.23056608 -0.042197607 -0.11480583 -0.7667567 0.24558672
-0.45644867 0.2953911 -0.026581295 0.109034695 0.011364458 -0.38779265 -0.13473874 -0.16447455
-0.57893777 -0.2523191 -0.45481566 -0.22410259 0.10346874 0.030367142 0.19670208 0.027209805
-0.075402014 -0.14315407 -0.12491387 0.33188292 0.21824436 -0.23303328 -0.097689636 -0.43827912

network.weight_hh_l1 f4 [128, 32]
00000000: 8f50 7ebe 685c fbbe 899f 44bf 4190 fe3d
00000010: 9144 9fbd 1b3c c0be 0d1e dcbe aa3c 053e
00000020: 7b34 233e 7297 613d 5e46 743d 2caf 01be
00000030: 0c0c d83d c906 f1bd f1a7 15be 80ab 13bd
00000040: f469 c93c 6599 1fbd bae0 303e daeb f3bc
00000050: 3a5f dc3d 80c0 783d 0c94 2fbe efaa 07bf
00000060: 21a6 abbd 7149 43bd 62d4 523c 6d68 ed3d
00000070: b9f2 c23c 11a6 2e3e f999 35be b962 8abd
00000080: efd7 53bf d0ce 0cbf 0e3b b7be 16f4 e03d
00000090: e0df 39bf 7889 adbf efeb bf3e 1d9b f13e
000000a0: c429 843f ef9f 4abf c1ff 913f bb3d 3e3e
000000b0: e24b 87bf 3301 173f b55d 68bf 95e8 e33e
000000c0: 4b77 0a3f b928 043f e098 3e3f 2ce8 493f
000000d0: d1d4 0b3f 059e 073f 0add 09bf 5321 323b
000000e0: ec6a 883f 03d8 043f 0dad 373e 30dd 7b3f
000000f0: ee73 31bf f2d0 fa3e 490c 4ebf 2b15 203f
00000100: 7aa7 0dbf 3a6c 55bf 5da0 f2be 34a2 103e
00000110: 33f4 0dbf ccab 68bf 248f 6c3e 33c8 873e
00000120: ce42 ed3e 047b 0bbf 1073 133f 0c40 963e
00000130: f949 53bf 8ac1 973e 2276 3ebf 2843 2d3f
00000140: f352 a63e 93ac 9b3e 6393 173f 1d48 fc3e
00000150: c79d fb3e b277 183f 6c85 05bf 19df 21be
00000160: 20b8 b13e 2f50 233f 82d3 a63e 8790 2d3f
00000170: ec75 01bf 4219 b53e faf8 54bf 8e97 7b3e
00000180: a1d7 4bbf b51f fcbe 90df fabe 6980 4b3e
00000190: db92 2ebf 570e efbf 95c7 5b3f 2bc8 ae3e
000001a0: 9264 363f 43cf d0be d115 a13f d445 003e
000001b0: e116 b6bf 1572 0e3f 57b3 65bf 4e41 013f
000001c0: de45 dc3e 4a35 ed3e e084 643f 2295 2a3f
000001d0: a440 363f f93f 373f 1eab f2be f1fe b8be
000001e0: 4666 0640 d690 2e3f 2de2 393e cadb 853f
000001f0: f8a1 83bf 7d27 2a3f 76d9 9bbf ef3d af3f
00000200: 5768 61be 05a5 36bf eb65 24bf 0318 7d3e
00000210: 8c09 213c 228e 1ebf 95ed 343e 56f2 e9bc
00000220: 2c5f 1f3d 4248 c9bd 96ff 8b3e 9235 98bd
00000230: 2c38 96be 2619 6ebe 232b 26be 8f80 303e
00000240: aa28 a13d 799d 473e 1a1a 383e 4d58 023e
00000250: 69e5 203e b9b5 babd 861d d6bd 08e0 bcbf
00000260: 64a0 393f 11bf 7f3b 07a1 403d dac1 8a3e
00000270: 6a03 84be 4e3f 573e bd01 1c3e 9669 993e
00000280: 331d 473e 35f8 95bf 2e32 cdbe 1ac1 29be
00000290: a169 343d 6cc7 88be bb3e 69bf 906b 12be
000002a0: c5ef e2be 12b9 8d3d 4116 42bf fdb4 a43d
000002b0: c88d 193f aa6d b9bd 3509 343f b411 02bd
000002c0: d013 b73b 6475 a5be 3a75 89bd 12db b2be
000002d0: 599e 3cbd 70a5 d7bd 525f 403e a7e3 95bf
000002e0: 5289 04bf 7659 06be 67b8 733d 4c06 dabd
000002f0: 6abc 843e 450f bcbe a39e 893f 73da 56bf
00000300: f09c 64be d250 63c0 0a72 10c0 d6c5 a73e
00000310: 0e38 fcbe 3e74 68bf ca4d 38bf 2a94 f0be
00000320: 48f6 b5bc 4a4b 6cbd 2054 9d3d 5cc9 4ebe
00000330: 6d46 0b3f 3e3b a2be 1a9b 543e 06e9 a73e
00000340: 24d0 8ebe f8c4 063d 2f72 af3e 367c 25be
00000350: 3432 3bbb 856c af3d 055c 9bbe 8a5c 1dc0
00000360: fc83 333e ed2b 943e 222e 69be da21 27be
00000370: 87fc 583f b3eb 01bf d090 ff3a 22fd 703f
00000380: 58fc 95bb b2f0 84bf b156 b1bf 1d60 e23e
00000390: e2f7 96be 9971 50bf 4cd1 98be e565 62bc
000003a0: c20b 043c 4e71 d3bd 4033 ea3e cbef f9bd
000003b0: 8815 37be 7c45 eb3d ec16 4cbe b9c1 413e
000003c0: e3dd b03d ce8b 0abe 84ea c03e ece7 15bd
000003d0: fb21 b63d d57e d43d 1192 9e3d db4b 72bf
000003e0: 1bdc 8c3e 5d94 3e3e 9679 f6bc 3763 8a3e
000003f0: 18d8 1dbd f6c0 13be 87cd 38be 5c27 083f
-0.24835418 -0.49093938 -0.7680593 0.12429858 -0.0777675 -0.37545857 -0.42991677 0.13011423
0.15937988 0.05507607 0.05963742 -0.12664479 0.10549173 -0.11768872 -0.14614846 -0.036052227
0.024586655 -0.038964648 0.17273226 -0.029775549 0.107603505 0.060730457 -0.17146319 -0.529952
-0.08381296 -0.04767746 0.012868019 0.11592183 0.02379738 0.17055537 -0.17734517 -0.06757111
-0.82751364 -0.5500307 -0.35787243 0.10984056 -0.7260723 -1.3557577 0.3748469 0.47188655
1.0325246 -0.7915029 1.1406175 0.18578236 -1.0570033 0.58986205 -0.90767986 0.44513384
0.54088277 0.5162464 0.7445202 0.7886989 0.5462161 0.52975494 -0.53852904 0.0027180507
1.065763 0.5189211 0.17937107 0.9838438 -0.6931752 0.48987538 -0.80487496 0.625323
-0.55333674 -0.83368266 -0.47387972 0.14124376 -0.55450743 -0.9088714 0.23101479 0.26519927
0.4634003 -0.5448458 0.57597446 0.2934574 -0.8253475 0.29639846 -0.74399006 0.676806
0.3248516 0.304051 0.5920927 0.49273768 0.49143812 0.5955764 -0.5215671 -0.15807761
0.3471079 0.63794225 0.32583243 0.67798656 -0.5057056 0.35370833 -0.8319241 0.24569532
-0.796259 -0.4924294 -0.4899869 0.19873203 -0.68192834 -1.8676251 0.85851413 0.3413709
0.7124721 -0.40783128 1.2584783 0.12526637 -1.4225732 0.55642825 -0.89726776 0.5049027
0.43022054 0.4632972 0.8926525 0.6663381 0.71192384 0.7158199 -0.47396177 -0.36132005
2.0999923 0.6818975 0.18152685 1.0457699 -1.0283804 0.66466504 -1.2175739 1.3690776
-0.22012459 -0.7134555 -0.64218014 0.24716191 0.009828936 -0.6193563 0.17668755 -0.028557938
0.038909122 -0.09828235 0.27343434 -0.07432093 -0.2933973 -0.23251781 -0.16227393 0.17236541
0.07869084 0.19493665 0.17978707 0.12728997 0.15712513 -0.09116692 -0.1045485 -1.4755869
0.7251036 0.0039023797 0.047028568 0.27101022 -0.25783855 0.21020243 0.15235038 0.29963368
0.19444732 -1.1716372 -0.40077347 -0.16577569 0.044046048 -0.26714647 -0.91111344 -0.14298844
-0.44323555 0.06920065 -0.75815207 0.08042333 0.59981966 -0.0905412 0.7032655 -0.031755164
0.0055870786 -0.32316124 -0.06711812 -0.34932762 -0.04604945 -0.105296016 0.18786362 -1.1710099
-0.51772034 -0.13120064 0.05950203 -0.10645732 0.25925 -0.367304 1.0751537 -0.8392708
-0.22325492 -3.5518079 -2.2569604 0.32768124 -0.49261516 -0.9080237 -0.71993697 -0.4698804
-0.022212163 -0.05768899 0.07682061 -0.20194 0.54404336 -0.31685823 0.20762292 0.3279497
-0.27893174 0.032902688 0.34266803 -0.16160664 -0.002856386 0.0856562 -0.30343643 -2.4587731
0.17530817 0.28939763 -0.22771505 -0.16321507 0.84760326 -0.50750273 0.0019498114 0.9413625
-0.004577201 -1.0385954 -1.3854581 0.44213954 -0.29485995 -0.81423336 -0.2984718 -0.013818239
0.008059444 -0.103243455 0.45742226 -0.1220394 -0.17879307 0.114878625 -0.19930619 0.18921556
0.086360715 -0.13529894 0.3767892 -0.03659813 0.088932 0.10375754 0.07742704 -0.94646996
0.27511677 0.18611284 -0.030087274 0.2702882 -0.03853616 -0.14429078 -0.18047152 0.5318506

network.weight_ih_l0 f4 [128, 12]
00000000: 9ad1 963e aca6 7bbe ea2a 143d 116b 9d3e
00000010: 4319 f13e 5dc9 9cbe 51f3 5dbe 3b04 18be
00000020: 8982 4abd b867 5c3c e7d3 8e3e e66f 293e
00000030: a7c8 e03e bc04 95bd 222c 873d 4f60 873e
00000040: e179 6d3e a255 c3bd 7c4f 39be 7ac3 693c
00000050: 6c18 e5bd 7916 633e 6c33 9a3e b402 9b3e
00000060: daf9 11bf be5c 2fbf 1941 c9be 4775 d9be
00000070: 49d8 4dbe 03c2 863e 8488 4f3d 49f6 503e
00000080: 019a a63d 1ae3 013e 3f2c e23e 608f 743e
00000090: 9fd4 43bf 8682 14be 0acf e9be 290c 86be
000000a0: b2e0 dd3e 926d 183f 27c0 233f 77c6 093f
000000b0: 2fd6 c73e eb58 f13e 1dd3 adbe 65e5 d9bf
000000c0: 198c 023f eded b2bd 96a6 36bf d714 46bf
000000d0: 42d8 8fbf 12dc 8cbf 953b cbbf 46b5 adbf
000000e0: 8e26 bdbf fb13 83bf 6c88 55be caeb 273f
000000f0: 5c9e 5bbf 60de 91bf b1e8 89bf 8de9 3cbf
00000100: 8ea9 47bf ced8 34bf 0807 30bf 6bd2 0fbf
00000110: 5f8e 3dbf b239 25bf c41d 3fbf 653f 79bf
00000120: e135 9abf f40f b3bf 4539 cfbf 3aa1 b8bf
00000130: ce2a 76bf 1ae6 8cbf ce13 2cbf 812f febe
00000140: 5f8f afbe a7a4 eebe ed9a 72be 1a6b 2fbf
00000150: 92b3 f2bc 30a0 89bd 2005 3eba a6ac 05be
00000160: a642 4c3e 6720 e5bd 42c1 93bd 420e 05be
00000170: 422f 93bd f486 bf3d fc3d ea3e 9337 ed3d
00000180: 3e42 7d3e 15fe 073e 2ed8 9e3e 19a4 ff3d
00000190: e911 66bd 7b0f ecbe abd2 bdbe 439f 37bf
000001a0: 10a1 e0be c480 ddbd 580f eabe 3f01 52be
000001b0: f33f 493f 4455 043f 41fb 9e3e 0c1d 983e
000001c0: 2a39 343e 3170 d23d db59 843d a388 833d
000001d0: bb40 183e 9d7a 4b3e 2ccc ebbc 0fff 38bc
000001e0: 549d 353e 6e57 f7bd 6e47 94bd daf4 c33d
000001f0: f288 c63d f345 4ebc ce03 f63d a2a7 ec3d
00000200: 71da 083e 2cea 6a3e 5af8 213f f1d9 5f3e
00000210: cb90 a23f 46cd da3d e928 ee3d 25bb 363f
00000220: 76b5 f93e 381a 0dbf 7a60 00be 1e11 8ebe
00000230: 034c 10bb b11e 70be 9e31 aabe 3265 da3e
00000240: 29cf 7f3f b784 6f3f 497d f23e 91f5 cdbe
00000250: 5830 81bf a0e2 8fbf 9d8d 9cbf 391b cdbf
00000260: f373 d5bf 6e1e 85bf fc31 50bf e0a8 80bf
00000270: 00de 853e 0d1d 19bc ba27 eebd 19c2 bf3d
00000280: 4d5e 4c3e cb6c 9b3e 1f91 433d 31e1 16bf
00000290: d8e2 5abf 82dd acbe a82c febe 81ce b0bd
000002a0: 134f d4bd 5c88 93be d45f cbbe 54e1 febe
000002b0: c6f2 39be 2852 28be 0468 0cbf 93f9 c9be
000002c0: af07 08be e996 3b3e 9dd4 203e 16ef e43e
000002d0: d49a 3dbe db85 a83b 6fad 74be a257 233d
000002e0: 3ef8 2b3e 1b23 8b3e f6fb 583e 5faf 323e
000002f0: 0a3c b63e d120 8f3e 7fe4 943e a7b3 cd3e
00000300: 1a20 853e 2c73 08bd 3fe1 20bf 1171 edbe
00000310: 0224 7fbe 1f68 febe 88ab 1cbf cc35 16bf
00000320: d64d 5abf 7e49 4fbf 468b 58bf 4111 93bf
00000330: a826 d03f 716d ab3f 55f2 763f b013 773f
00000340: f30f 703f 5c86 913e fc48 9bbd 9713 b63d
00000350: bc35 27bd 347d b9be 007b e4be 1458 2fbe
00000360: 388e 02bf 3289 2cbf 9cc2 06bf f340 c8be
00000370: cc90 91be 09a8 b8bd 3e0f 873e 43e9 a83d
00000380: b169 aebc 665c 733e 216e 323f 2abd 533f
00000390: 3969 1b3f 14a1 953b 5e36 ef3e c2ef ac3e
000003a0: 78e9 c13e df8a 73be d81d 47be f716 9bbe
000003b0: 0f34 7bbd b95b b8bd 790f 2a3e 44a3 153d
000003c0: cc78 86be 2f42 3fbe 0c10 f0be 79c5 9fbe
000003d0: f237 4e3e 2d2f 9c3d 8f2f 6cbe 7896 373c
000003e0: df85 313d caa3 6bbd 3437 90bd 5cbf 05bf
000003f0: 138c 8bbe b98a ecbe c1c9 a0be 3468 4abd
0.29456788 -0.24575299 0.03617374 0.30745748 0.47089586 -0.30622378 -0.21674849 -0.14845364
-0.049440894 0.013452463 0.27896044 0.16546592 0.43903086 -0.07276294 0.066002145 0.26440665
0.23191024 -0.095378175 -0.18096727 0.014267797 -0.11186299 0.22176541 0.30117357 0.302755
-0.5702187 -0.6850089 -0.39307478 -0.42472288 -0.20102037 0.26319894 0.0506673 0.2040645
0.08134843 0.12684289 0.44174382 0.23882818 -0.7649631 -0.14502916 -0.4566577 -0.26181152
0.4333549 0.5954219 0.63965076 0.5381846 0.39030597 0.47138152 -0.3395013 -1.7023131
0.5099502 -0.08736787 -0.7134794 -0.7737555 -1.1237872 -1.100466 -1.5877558 -1.3570945
-1.4777391 -1.0240473 -0.20852822 0.6559416 -0.8578851 -1.1395988 -1.0774137 -0.7379387
-0.77993095 -0.7064332 -0.6876073 -0.5618045 -0.74045366 -0.6454116 -0.74654794 -0.9736236
-1.2047693 -1.3989244 -1.6189352 -1.4424202 -0.96159065 -1.1007721 -0.6721772 -0.49645618
-0.3428907 -0.46609995 -0.23691912 -0.685228 -0.029626641 -0.067200065 -0.00072486885 -0.13054141
0.199473 -0.11187821 -0.072145954 -0.1299372 -0.07186748 0.09351912 0.45750415 0.115828656
0.247323 0.13280518 0.31024307 0.12482471 -0.056169424 -0.4610556 -0.3707479 -0.7172739
-0.4387288 -0.10815576 -0.4571483 -0.20508288 0.78613204 0.51692605 0.31051067 0.2970966
0.17599931 0.10275305 0.06462451 0.06422546 0.14868443 0.19870992 -0.02878388 -0.011291279
0.17735797 -0.12077223 -0.07240187 0.09568186 0.09694089 -0.012589919 0.120124444 0.11555411
0.13364579 0.22940892 0.6326958 0.21860482 1.2700437 0.10683684 0.11628897 0.7137931
0.48771256 -0.5511813 -0.12536803 -0.27747434 -0.0022017963 -0.23449208 -0.3324098 0.4265533
0.99925476 0.9356188 0.4736121 -0.40226415 -1.0092878 -1.1241035 -1.2230717 -1.6023933
-1.667601 -1.0399911 -0.8132627 -1.0051537 0.26145935 -0.009345305 -0.11628671 0.09363193
0.19957848 0.3035644 0.04774582 -0.58937365 -0.85502386 -0.33762747 -0.49643445 -0.086331375
-0.10366645 -0.2881497 -0.3972155 -0.49781287 -0.18159017 -0.1643759 -0.54846215 -0.39448223
-0.13284181 0.18319286 0.15706106 0.44713658 -0.18516093 0.00514291 -0.23894285 0.039878495
0.16793916 0.2717522 0.21189865 0.17449711 0.3559268 0.27954724 0.2908058 0.40176126
0.26001054 -0.03331296 -0.628437 -0.46375325 -0.2491608 -0.49688813 -0.61199236 -0.5867584
-0.8527502 -0.80971515 -0.84587514 -1.148964 1.6261797 1.3392774 0.9646352 0.96514416
0.93774337 0.2842282 -0.0758228 0.08890455 -0.04082273 -0.36228335 -0.44625092 -0.17123443
-0.5099826 -0.67396843 -0.526407 -0.39112052 -0.28430784 -0.09016425 0.26378816 0.08247616
-0.021290632 0.23765716 0.69699293 0.82710516 0.6070743 0.004566321 0.46721166 0.3377667
0.37873435 -0.23783444 -0.19444978 -0.30290958 -0.061328944 -0.0900187 0.16607465 0.036532655
-0.26264036 -0.18677591 -0.46887243 -0.31205347 0.20138529 0.076261856 -0.23065017 0.011205308
0.04334056 -0.05752925 -0.07041779 -0.52245116 -0.27255306 -0.46199587 -0.31403926 -0.049415782

network.weight_ih_l1 f4 [128, 32]
00000000: 06ad a7ba 82f5 b0be 7a19 a83e 774a ca3e
00000010: 0135 793e 123f 4dbb d0c4 713e 1d77 ef3d
00000020: 0eb6 0d3d c7df 4e3e 10f8 64be 246e 38be
00000030: 8df8 dfbe 224c 0abe 666d 83be 08c8 b5be
00000040: ea4c 7e3e 0b13 b13e d8f1 083e 7551 543d
00000050: 9268 4dbe ece6 8abc b148 8dbe 25f4 703e
00000060: 2120 1b3e 7f84 ccbd 4ded 1abe effd 58be
00000070: 4413 8e3e db0c e73d 804c babe b4d5 613f
00000080: 56ca ed3d be09 5b3e 2d5a 2fbd b672 61be
00000090: 44e1 5bbd c2d2 b6be 4ca3 d6be 6871 ef3e
000000a0: 97e6 1dbe 2695 a4bd 4d1c 06bf 23e8 b8be
000000b0: b2a2 953e 92b2 41bf f745 553d a339 81bf
000000c0: 1e91 03be 6212 c3bd 244c 233f 9372 543d
000000d0: 0108 bebd 9476 a0be 12d7 aebd 7584 1f3f
000000e0: 28f4 4ebe 5270 6ebe 40a0 c9bd 28ad 853e
000000f0: 0857 7a3e 8e0f d5be 6891 babe 0237 3abf
00000100: 2c73 61bb 7068 4bbe 1a94 1f3f 4d3b 0c3e
00000110: 1837 203e bf10 08bf 3481 973d 0023 c8bd
00000120: 6df9 db3e 64ad d73c 136f 13be 9b28 ccbd
00000130: 3f41 dabe d4de 4dbe d150 12bf 66b9 00bd
00000140: 093c d33d 85a2 4a3e a878 fcbe 9159 853e
00000150: 234b 153e 01a6 763e 57bd d9bd 65db 0f3e
00000160: f041 a33e f211 21be be15 53bf 0525 56bd
00000170: 56d8 003f da99 c93a bdc4 28bf 7a56 46bf
00000180: a932 d73e 2a57 09be deef 853f f3d7 083e
00000190: 7eb2 4d3f 3c35 973e 5cec b23d 4302 e8be
000001a0: 9918 3e3e fbf3 4abf e4da 143f ddac 023e
000001b0: 54a8 78be 3bd8 6f3e 5bbc c9be f8c4 093f
000001c0: 564e e2bd 71ee 40bf 4a48 b5bf b75c 83bd
000001d0: 3dab 38be 1a49 4b3f cea8 fdbe 80ce 0ebf
000001e0: ee9a 0a3e 3acd 23be bdd5 a0bf 0240 993e
000001f0: e118 023f f538 8b3e 7659 4bbf f610 8e3d
00000200: 25fd 4e3e 499d 8cbe 4f9a 913e 6602 ec3c
00000210: 2401 1cbe 60b0 5bbe 28b0 d1bc 6270 bfbe
00000220: aae4 073f 6139 103f 5992 b83d def2 35bf
00000230: dd1b a7be 0c39 1bbf a522 2bbe ff2d 173e
00000240: 75f1 fb3e 9182 993e 0cd4 85be 08ad 9a3e
00000250: a0a5 053e f6a3 993e 472e 06be a3d3 8e3d
00000260: 3a53 d93e b881 3abf 4a18 2dbf 24af d5be
00000270: a964 2b3f c171 643e 25ae 53bf 3fff 903e
00000280: ee66 dc3d 6698 b33c f620 1a3f d4c3 5e3f
00000290: c92a 663f a7aa e33e 8c7b 573e 5591 46be
000002a0: 91cf 2b3e efe2 163f 1886 483e 4fcf a5bf
000002b0: 84a9 86bf 8186 753e dd50 743e 6c79 b33e
000002c0: 9cac 9e3e 3010 773f a1b6 a93d 430a b53b
000002d0: 3a16 24bd 062e 393e eca1 273e 2b2f edbe
000002e0: 0cea 173f c70a b4be dc0c 48be f367 5b3e
000002f0: 9951 6e3f 3319 4f3e 78c6 97bf f52e c73f
00000300: 2a20 273f bef4 edbe 1a10 413f d981 453f
00000310: 29ab 5c40 c057 673f 5aa4 ff3f 380d 5ebe
00000320: 144b d03f d1d6 b6be d64c 9e3e 7c7d a7bf
00000330: 5208 24bf 5b07 273f 2d16 05c0 4cbe 08be
00000340: fa16 f63f 11d3 92be 9736 4abf f5e9 bd3e
00000350: ffda 2a3f 5608 3d3e 0a9c 0dc0 95f7 cdbe
00000360: 1c11 6f3f f7af 1abf ee99 20bf 5326 00be
00000370: 3756 973f 74f7 683e c356 cfbe 65be 9b3f
00000380: 69d3 3b3e c5d1 dbbe eb3f 293f 668b 2f3f
00000390: c048 803f 68ea ca3e b8d5 e93e 46ff d2be
000003a0: c489 f53e fb65 393e d11b 743e 1ed1 39bf
000003b0: 4767 b4be 9a4d 96be 710b 3dbf a2b3 b53d
000003c0: 5f52 1f3e f7d2 4d3d 10e2 24bf 3920 a93e
000003d0: dfda 6b3d b9f8 e63e 8a62 53bf 028f 5dbe
000003e0: 1af2 923e 80d4 ebbe 85cb 48bf 6cd8 d03d
000003f0: e7f1 1e3f c919 8c3e f0c3 59bf 8e93 723f
-0.0012792654 -0.34562308 0.32831937 0.39509937 0.24336626 -0.003131811 0.23610234 0.11692641
0.03459745 0.20202552 -0.22360253 -0.18010765 -0.43744317 -0.13505605 -0.25669402 -0.35504174
0.24834028 0.3458484 0.13373506 0.051835496 -0.20059422 -0.016955815 -0.27594522 0.23530634
0.15148975 -0.09986209 -0.15129586 -0.21190618 0.27749074 0.11281749 -0.3638649 0.8821671
0.11610858 0.21390435 -0.042810608 -0.22016415 -0.053681627 -0.3570767 -0.4192146 0.4676621
-0.15419994 -0.0803626 -0.52386934 -0.36114606 0.2922569 -0.756631 0.052068677 -1.0095714
-0.12848327 -0.095249906 0.63788056 0.05186708 -0.092788704 -0.31340468 -0.08537115 0.6231149
-0.20210326 -0.23285034 -0.098450184 0.2610867 0.24447262 -0.4161343 -0.3643906 -0.72740185
-0.0034400923 -0.19864058 0.6233536 0.13694496 0.15646017 -0.5315055 0.073976904 -0.09772301
0.42963734 0.026327796 -0.1439784 -0.099686824 -0.42627904 -0.20104533 -0.57154566 -0.03142681
0.10314185 0.19788559 -0.49310803 0.26044896 0.14579444 0.24086763 -0.10631817 0.14048536
0.31886244 -0.15729502 -0.8245505 -0.0522814 0.503301 0.0015380934 -0.659252 -0.774757
0.42030838 -0.13412157 1.0463827 0.13363628 0.8035048 0.29532802 0.08736488 -0.45314226
0.18564071 -0.79278535 0.581465 0.12761255 -0.24282962 0.23422329 -0.39401516 0.53816175
-0.11050098 -0.7536383 -1.4162686 -0.06414168 -0.18034072 0.7940842 -0.4954285 -0.55783844
0.13535663 -0.15996256 -1.2565228 0.29931647 0.5081921 0.27191892 -0.7943338 0.06936829
0.20213754 -0.2746375 0.2843804 0.028809737 -0.1523481 -0.21454 -0.025596693 -0.3739043
0.5308329 0.56337553 0.090122886 -0.7107371 -0.32638445 -0.6063392 -0.16712435 0.1476364
0.49207655 0.29982427 -0.2613834 0.30210137 0.13051462 0.30007905 -0.13103591 0.0697396
0.4244631 -0.72854185 -0.6761519 -0.41735184 0.6695047 0.22309019 -0.826876 0.28319737
0.1076182 0.021923255 0.60206544 0.8701756 0.89909035 0.44466135 0.21043223 -0.19391377
0.16778399 0.58940023 0.19582403 -1.295389 -1.0520482 0.2397709 0.23858972 0.35053575
0.30991066 0.96509075 0.08286787 0.005524905 -0.04006026 0.18083963 0.16370362 -0.4632505
0.593415 -0.35164472 -0.19536155 0.21426372 0.9309326 0.20224456 -1.1857443 1.5561205
0.65283453 -0.46475786 0.75415194 0.77151257 3.4479468 0.9036827 1.9972031 -0.2168473
1.6272912 -0.35710767 0.30917996 -1.308517 -0.64075196 0.652456 -2.0794785 -0.13353842
1.9225762 -0.28676656 -0.7898955 0.37092558 0.6674041 0.18460211 -2.2126489 -0.40227953
0.9338548 -0.6042475 -0.6273488 -0.1251462 1.1823186 0.22750646 -0.4049588 1.2167479
0.18342365 -0.4293348 0.66113156 0.6857208 1.0022202 0.39631963 0.45670867 -0.41210383
0.4795667 0.18105309 0.23838736 -0.7258471 -0.35235044 -0.2935608 -0.73845583 0.08872153
0.15558766 0.05025002 -0.64407444 0.33032396 0.05758178 0.45111635 -0.82572234 -0.21636584
0.28700334 -0.46060562 -0.78435546 0.10197529 0.62087864 0.27363423 -0.850646 0.947564
